blitz/cifar_net.pth (torch, 250887 bytes, 10 tensors)

conv1.weight f4 [6, 3, 5, 5]
-0.01916496 0.045631386 -0.07081588 -0.028099062 -0.050295517 -0.21777432 -0.25285822 -0.23168384
-0.24942003 -0.32706863 -0.2623773 -0.26948497 -0.22054535 -0.31213087 -0.27291536 -0.19146295
-0.14690343 -0.1128796 -0.03755371 -0.15422279 0.030249689 0.107594445 0.17489398 0.080829516
-0.16079098 -0.014725841 0.10238673 0.08180712 0.12159291 0.13888526 -0.07251798 0.111560814
0.019214801 -0.05993912 0.12733853 0.028912816 -0.015329551 -0.05658913 -0.09749341 -0.112942204
0.017385812 0.08432676 -0.009137021 -0.100842744 -0.059412796 -0.05424742 0.04369151 -0.10925827
-0.06332158 -0.07533132 0.12880144 0.11690192 0.34442255 0.308694 0.09007258 0.21864408
0.17618753 0.15099008 0.21178257 0.17769246 0.025586205 0.048765596 0.10260611 0.17507717
0.18951431 0.23474345 0.23863223 0.14757837 0.17030874 0.07817535 -0.005255398 0.032634042
0.15365043 0.031212004 -0.0072511085 0.22114404 0.14223576 0.26178777 0.09916523 0.10543832
-0.030225957 -0.034084734 0.114151545 -0.037498996 0.08433602 -0.06601453 0.14677455 0.17065047
-0.033218525 0.045511093 0.01682238 0.08192546 -0.055790387 -0.082543954 -0.08773654 -0.106264286
-0.18384121 -0.19177184 -0.14507209 -0.13679013 -0.20123582 -0.25014523 -0.28963685 -0.20368356
-0.41028824 -0.19662194 -0.11422988 -0.18466458 -0.26446477 -0.21803863 0.012582201 0.02543843
-0.033858567 -0.070137195 -0.20009737 -0.09124813 -0.013061546 0.06312023 -0.09819236 -0.15623721
-0.021358848 -0.20904194 -0.20273742 -0.17744458 -0.15791595 0.016351447 -0.079199426 -0.041127276
-0.1894531 -0.11754169 0.004292159 0.021552378 0.06337266 0.0074256347 -0.08700926 0.10049496
0.09552324 0.10209225 0.1712363 0.15254472 0.11590392 0.059379585 0.11643184 0.13204803
0.2117134 0.13173781 0.22618526 0.13909607 0.06095589 0.019940626 0.046985343 -0.029485583
0.028630584 -0.03922474 0.06981293 0.38821182 0.581967 0.5403547 0.6004985 0.33533525
-0.090480365 0.26196033 0.14374278 0.19130498 0.09705493 -0.33606663 -0.20248199 -0.31744885
-0.2616143 -0.11305398 -0.31582907 -0.17289102 -0.1998528 -0.25596175 -0.093596704 -0.14785205
-0.193281 -0.03702768 -0.14249915 -0.13671489 0.26218343 0.4265664 0.45087066 0.20562251
0.15103614 -0.009915202 -0.036674187 -0.027395293 -0.0565554 0.08497154 -0.27310336 -0.2915707
-0.46108508 -0.39002204 -0.28661758 -0.10605126 -0.06408157 -0.2473862 -0.1575144 -0.13695793
-0.041273475 -0.089635484 -0.15783131 -0.41018808 -0.25765872 0.12381917 0.3343783 0.26716876
0.0073023573 0.10769062 -0.0017806804 0.095403805 0.14706556 0.055660903 0.048563752 -0.118129045
-0.009167312 -0.2749929 -0.1672364 0.055547144 0.15710184 0.19061902 0.20398474 0.14218245
0.08174957 0.06493221 0.1380986 -0.019133175 -0.0068454696 0.36231634 -0.054779682 0.28905198
0.24761379 -0.26688397 -0.07125051 -0.0017403194 0.26785362 0.21402155 -0.03731343 -0.21303272
0.01864185 0.08955413 0.18949053 -0.14058395 -0.021428127 -0.07023566 -0.028168438 0.057719957
0.015237429 0.10036139 0.0058285166 -0.0016499147 -0.2050681 -0.24670295 -0.09810063 0.13110968
00000000: d6ff 9cbc fae7 3a3d eb07 91bd 0130 e6bc
00000010: ac02 4ebd 3b00 5fbe a276 81be 873e 6dbe
00000020: f767 7fbe 8a75 a7be 5156 86be eff9 89be
00000030: a4d6 61be 9ecf 9fbe 90bb 8bbe dd0e 44be
00000040: da6d 16be 6b2d e7bd ebd1 19bd 94ec 1dbe
00000050: 32ce f73c 7a5a dc3d 6817 333e f289 a53d
00000060: 64a6 24be a744 71bc 22b0 d13d 7e8a a73d
00000070: b405 f93d f037 0e3e 4f84 94bd ff79 e43d
00000080: 5c68 9d3c b982 75bd 0865 023e 92da ec3c
00000090: cc28 7bbc 01ca 67bd a0aa c7bd 3e4e e7bd
000000a0: b16c 8e3c 82b3 ac3d 72b3 15bc a486 cebd
000000b0: d55a 73bd 8b32 5ebd def5 323d cdc2 dfbd
000000c0: bfae 81bd 4f47 9abd 86e4 033e 466a ef3d
000000d0: 2758 b03e 240d 9e3e f977 b83d 3ce4 5f3e
000000e0: 816a 343e 259d 1a3e 88dd 583e 03f5 353e
000000f0: 299a d13c 6fbe 473d 2723 d23d 6e47 333e
00000100: 0a10 423e 9660 703e 025c 743e c91e 173e
00000110: 6a65 2e3e 661a a03d 7935 acbb 46ab 053d
00000120: 8a56 1d3e 51b0 ff3c b59a edbb 9573 623e
00000130: 40a6 113e 0c09 863e 2417 cb3d 0cf0 d73d
00000140: 6d9c f7bc 6f9c 0bbd 49c8 e93d 8c98 19bd
00000150: 5db8 ac3d a032 87bd 114c 163e ffbe 2e3e
00000160: 2610 08bd d769 3a3d 16cf 893c 89c8 a73d
00000170: 7684 64bd ce0c a9bd 37af b3bd 17a1 d9bd
00000180: df40 3cbe d65f 44be c78d 14be b612 0cbe
00000190: c310 4ebe 0913 80be 484b 94be 6c92 50be
000001a0: 4d11 d2be 4357 49be 5bf1 e9bd b618 3dbe
000001b0: ed67 87be 8545 5fbe 9325 4e3c 4164 d03c
000001c0: 48af 0abd 17a4 8fbd 53e6 4cbe 4de0 babd
000001d0: 1800 56bc 2e45 813d 1319 c9bd a6fc 1fbe
000001e0: c0f8 aebc 170f 56be 669a 4fbe 08b4 35be
000001f0: b8b4 21be 78f3 853c 4f33 a2bd 1375 28bd
00000200: feff 41be b3b9 f0bd 3da5 8c3b 9d8e b03c
00000210: 86c9 813d bd52 f33b e931 b2bd 4dd0 cd3d
00000220: b0a1 c33d be15 d13d 9258 2f3e af34 1c3e
00000230: 095f ed3d 0238 733d d173 ee3d 9937 073e
00000240: 66cb 583e 47e6 063e 1c9d 673e 336f 0e3e
00000250: e2ac 793d 865a a33c b473 403d c08b f1bc
00000260: b08a ea3c 1faa 20bd 15fa 8e3d b3c3 c63e
00000270: cafb 143f b054 0a3f 45ba 193f 10b1 ab3e
00000280: c54d b9bd aa1f 863e 4f31 133e 74e5 433e
00000290: bcc4 c63d ed10 acbe 7057 4fbe a888 a2be
000002a0: 4ff2 85be d888 e7bd 59b4 a1be 580a 31be
000002b0: 36a6 4cbe 6b0d 83be a1af bfbd 8766 17be
000002c0: 74eb 45be 56aa 17bd 4ceb 11be fdfe 0bbe
000002d0: e83c 863e e966 da3e 85d8 e63e b58e 523e
000002e0: 38a9 1a3e 5f73 22bc ac37 16bd 186c e0bc
000002f0: a3a6 67bd 8f05 ae3d 34d4 8bbe c148 95be
00000300: 5813 ecbe f8b0 c7be 8abf 92be 6731 d9bd
00000310: 333d 83bd cf52 7dbe 744b 21be b33e 0cbe
00000320: 600e 29bd cf92 b7bd 889e 21be 2c04 d2be
00000330: d8eb 83be e894 fd3d a233 ab3e 58ca 883e
00000340: 9d48 ef3b e68c dc3d b865 e9ba 1263 c33d
00000350: 5b98 163e b0fc 633d c9ea 463d a4ed f1bd
00000360: 7e32 16bc dfcb 8cbe 0540 2bbe 6785 633d
00000370: 4edf 203e a231 433e 60e1 503e 4798 113e
00000380: 526c a73d 2efb 843d b869 0d3e 2dbd 9cbc
00000390: f64f e0bb 8781 b93e a960 60bd 9ffe 933e
000003a0: 788e 7d3e 04a5 88be caeb 91bd 6e1b e4ba
000003b0: 1c24 893e 7728 5b3e f8d5 18bd 4025 5abe
000003c0: cbb6 983c 2868 b73d ce09 423e 3df5 0fbe
000003d0: 0a8a afbc b7d7 8fbd 7fc1 e6bc c36b 6c3d
000003e0: 69a6 793c 468a cd3d 24fd be3b f341 d8ba
000003f0: 5ffd 51be b39f 7cbe fce8 c8bd 9e41 063e

conv1.bias f4 [6]
0.44532114 -0.29092482 -0.4707122 -0.048315987 -0.16742402 0.0248159
00000000: 2201 e43e 19f4 94be 3101 f1be fce6 45bd
00000010: 3471 2bbe b74a cb3c

conv2.weight f4 [16, 6, 5, 5]
0.030933473 0.083891764 0.08406861 -0.024145653 -0.011256561 0.017895443 0.067723796 0.031074913
-0.06042712 0.06557846 -0.02459755 0.054729763 0.08010672 -0.006850511 0.018040633 -0.0066164555
0.0058759893 -0.123389155 -0.11333633 -0.075316936 -0.011452106 0.06536375 0.0005609227 -0.0072736773
-0.10826097 -0.1066118 -0.12459126 0.007354147 -0.0681398 -0.090723984 -0.05302898 -0.04881206
0.01830298 -0.1107617 -0.122892395 -0.061815698 0.03169002 -0.07068276 0.059274845 -0.037612423
-0.004103462 0.024094878 0.02146383 -0.0011641135 0.01104425 -0.035628706 0.012367842 0.054819223
0.02208618 0.09034064 -0.07993534 -0.027225623 -0.13728632 -0.21104737 -0.18459861 -0.08761833
-0.08068927 -0.06961088 -0.19187747 -0.020275248 -0.10828643 -0.061877187 -0.10309331 -0.14883395
0.018286757 0.03675266 -0.060557604 0.1326459 0.15901324 0.070186704 0.1393118 0.12922953
0.13810983 0.32873246 0.2977885 -0.14671162 -0.20649673 -0.22346012 -0.16745554 -0.21018295
-0.0691274 -0.14676777 -0.061112966 -0.07218635 -0.08076953 -0.06877108 -0.15139866 -0.040901277
-0.113316946 0.12884362 0.017972998 -0.11439649 0.019379739 0.10856353 0.19412363 -0.03926247
0.023053443 -0.03239893 -0.008405546 0.14323576 -0.24297439 -0.2368113 -0.16219415 -0.15097965
-0.13648091 -0.0978159 -0.17785001 -0.20951822 -0.057752103 -0.05028032 -0.12525013 -0.016847601
-0.043266304 -0.061932996 -0.05640238 -0.11892117 -0.0032880488 -0.011989411 0.05090947 -0.004510603
0.031057466 0.03918564 0.014709614 0.11037518 0.17446299 -0.13177253 -0.11521135 -0.26592737
-0.14793341 -0.05743477 -0.055910107 -0.024741193 -0.12467135 -0.04700168 -0.09761895 0.043306213
0.12237412 0.034542665 0.04680987 -0.0315911 0.0855644 0.17123766 0.13732499 0.13024421
-0.028604578 -0.052651968 0.055512447 0.01563135 0.05888854 0.10830801 -0.14203598 -0.14898327
-0.025407324 -0.097898915 -0.01692025 -0.124665864 -0.035341427 -0.048295714 -0.031226322 -0.071208365
-0.033278447 -0.07347612 -0.011744228 0.022630608 0.0005506796 -0.12089385 0.0006423073 0.020440033
-0.029168703 0.07845134 -0.04359784 -0.02058665 -0.07673402 -0.007320744 0.024793956 -0.07735882
0.032003745 0.0032366416 0.078409605 0.09975316 0.015034859 -0.03292371 0.09387996 0.011081142
0.09326608 0.015872842 -0.0073084077 -0.017500963 -0.0025921778 0.07716873 -0.041547343 0.04074964
-0.025201522 0.015711406 -0.04105479 0.034867574 -0.06782978 0.021312177 0.09538229 0.061947685
0.0137855485 -0.07982605 0.034420043 0.0542423 0.021058016 -0.0138345305 -0.046074186 0.08101076
0.09951153 0.060879562 -0.069389604 0.07651343 -0.021307856 0.01068805 -0.023111392 0.044060722
0.15011989 0.06444264 0.0029220586 0.09274949 0.023894561 -0.031157475 -0.04419591 0.06088235
-0.07344127 0.021206118 -0.026367936 -0.059665997 0.053906813 0.021581981 0.05512442 0.010218624
0.054798324 -0.009042674 0.08840906 0.10136365 0.010602232 -0.018394416 0.06595686 -0.020074602
0.03580177 0.006369802 -0.06668181 0.017119085 0.055146303 0.1251145 -0.010246991 0.07799847
0.038843032 0.10815053 0.076378606 -0.037823696 0.010536613 0.09883191 0.099689 -0.07355738
00000000: 3268 fd3c 72cf ab3d 2a2c ac3d 1bcd c5bc
00000010: 706d 38bc 7799 923c c6b2 8a3d d190 fe3c
00000020: 6e82 77bd 004e 863d cd80 c9bc 512c 603d
00000030: fe0e a43d 407a e0bb f3c9 933c dace d8bb
00000040: 5f8b c03b 74b3 fcbd e11c e8bd c43f 9abd
00000050: 9da1 3bbc 6edd 853d e30a 133a 0758 eebb
00000060: edb7 ddbd 4a57 dabd b429 ffbd 0efb f03b
00000070: e18c 8bbd 7fcd b9bd ea34 59bd 28ef 47bd
00000080: 22f0 953c 08d7 e2bd 02af fbbd 7532 7dbd
00000090: 65cd 013d 1fc2 90bd 2eca 723d 7c0f 1abd
000000a0: 5676 86bb 9f62 c53c ead4 af3c 2b95 98ba
000000b0: f1f2 343c 68ef 11bd 7da2 4a3c 1f8a 603d
000000c0: 14ee b43c 8304 b93d 24b5 a3bd 4508 dfbc
000000d0: c994 0cbe cd1c 58be 6b07 3dbe 3d71 b3bd
000000e0: 6a40 a5bd 2690 8ebd 877b 44be 4718 a6bc
000000f0: 47c5 ddbd ef72 7dbd 9622 d3bd ed67 18be
00000100: 1cce 953c f589 163d 400b 78bd 54d4 073e
00000110: 5ed4 223e 0cbe 8f3d c1a7 0e3e bf54 043e
00000120: aa6c 0d3e 9f4f a83e bc77 983e 923b 16be
00000130: e173 53be bbd2 64be 7779 2bbe 333a 57be
00000140: ab92 8dbd 4a4a 16be 9751 7abd 70d6 93bd
00000150: 7f6a a5bd dad7 8cbd 4008 1bbe 1988 27bd
00000160: b712 e8bd 95ef 033e 1c3c 933c b548 eabd
00000170: 42c2 9e3c 8e56 de3d 58c8 463e afd1 20bd
00000180: 93da bc3c beb4 04bd 6ab7 09bc 65ac 123e
00000190: 47ce 78be a97e 72be 3916 26be 699a 1abe
000001a0: a7c1 0bbe b453 c8bd 501e 36be f28b 56be
000001b0: 788d 6cbd bdf2 4dbd 9241 00be fb03 8abc
000001c0: 0238 31bd 74ad 7dbd 2f06 67bd f18c f3bd
000001d0: 4e7c 57bb 3c6f 44bc 7386 503d aecd 93bb
000001e0: 3a6c fe3c 1f81 203d 9800 713c 620c e23d
000001f0: 6da6 323e 61ef 06be eef3 ebbd a227 88be
00000200: db7b 17be b940 6bbd ff01 65bd 0bae cabc
00000210: b153 ffbd d584 40bd 72ec c7bd db61 313d
00000220: 489f fa3d 9c7c 0d3d b5bb 3f3d ab65 01bd
00000230: 633c af3d ed58 2f3e ec9e 0c3e bd5e 053e
00000240: 2654 eabc 97a9 57bd 0561 633d 510d 803c
00000250: 1c35 713d 97d0 dd3d e171 11be 128f 18be
00000260: 0523 d0bc 3a7f c8bd 569c 8abc d150 ffbd
00000270: 2cc2 10bd bad1 45bd 58ce ffbc b1d5 91bd
00000280: fb4e 08bd a67a 96bd dd6a 40bc d363 b93c
00000290: 7b5b 103a 3297 f7bd 8360 283a db71 a73c
000002a0: 34f3 eebc 19ab a03d a693 32bd 56a5 a8bc
000002b0: ba26 9dbd dae2 efbb b21c cb3c 4d6e 9ebd
000002c0: 5c16 033d d61d 543b 3795 a03d 624b cc3d
000002d0: c554 763c 03db 06bd 2344 c03d ae8d 353c
000002e0: 4902 bf3d c307 823c 5e7b efbb 2e5e 8fbc
000002f0: 87e1 29bb a40a 9e3d 8c2d 2abd 18e9 263d
00000300: 6c73 cebc 35b5 803c 1129 28bd 4dd1 0e3d
00000310: 57ea 8abd e096 ae3c ca57 c33d dbbc 7d3d
00000320: c8dc 613c d77b a3bd 08fc 0c3d 2d2d 5e3d
00000330: dc81 ac3c 3aaa 62bc 49b8 3cbd f8e8 a53d
00000340: b3cc cb3d d95c 793d 231c 8ebd 13b3 9c3d
00000350: d08d aebc ee1c 2f3c 1a54 bdbc 0479 343d
00000360: 07b9 193e 81fa 833d 0280 3f3b 72f3 bd3d
00000370: 87be c33c f63d ffbc c506 35bd c55f 793d
00000380: 6068 96bd 74b8 ad3c 9201 d8bc 5564 74bd
00000390: 64cd 5c3d b2cc b03c 25ca 613d 046c 273c
000003a0: 3574 603d b927 14bc cf0f b53d bf97 cf3d
000003b0: fcb4 2d3c e3af 96bc 6414 873d 7e73 a4bc
000003c0: e0a4 123d c6b9 d03b 7990 88bd 533d 8c3c
000003d0: 17e1 613d 041e 003e ffe2 27bc a9bd 9f3d
000003e0: df19 1f3d 067e dd3d 636c 9c3d 05ed 1abd
000003f0: c2a1 2c3c 6268 ca3d bf29 cc3d 40a5 96bd

conv2.bias f4 [16]
0.25745127 -0.024542091 -0.19982699 -0.2351168 0.763017 0.9294312 -0.6621395 0.51208305
-0.15548082 -0.23313807 -0.08401858 0.0725934 0.036875665 -0.27530628 -0.25300878 -0.014838972
00000000: a7d0 833e 7f0c c9bc 729f 4cbe 75c2 70be
00000010: 1555 433f 34ef 6d3f f981 29bf e017 033f
00000020: 5d36 1fbe bfbb 6ebe ef11 acbd d9ab 943d
00000030: f00a 173d f2f4 8cbe 5e8a 81be 291f 73bc

fc1.weight f4 [120, 400]
0.015830703 -0.05591219 0.036987104 0.0079784095 0.043854404 -0.0060672783 0.01940416 -0.0234448
-0.032106724 -0.0067106076 0.034906898 0.05134902 -0.029075295 -0.02125926 0.026925294 0.027927598
-0.025053814 0.039778497 -0.05448673 -0.06795686 -0.027533516 -0.016892182 0.032679994 0.03619587
-0.020339975 0.011306345 0.04173162 -0.008856196 0.028156132 -0.042460963 -0.040318593 -0.009602883
-0.0031179478 0.011892056 -0.045141805 -0.03388818 0.030585077 -0.0032356116 -0.017309563 0.0001401378
-0.028391298 -0.010562467 0.020712722 0.026365569 -0.0073710596 -0.009256795 0.002652079 0.03551082
-0.019599386 -0.0044890647 -0.010233084 -0.009838413 -0.0062180753 0.0051873303 0.030864296 -0.03175171
0.0060089133 -0.03130876 -0.074438944 -0.0005126548 0.007286712 0.053540807 -0.007691693 0.026796404
0.025805578 0.014836626 -0.04468649 0.023978902 0.013767817 0.008092984 0.039979585 0.022197552
-0.028028661 0.060658798 -0.026804188 0.0024768964 0.007253847 0.0049238857 -0.040332485 0.034905754
-0.005689195 -0.011049464 -0.026802145 -0.04214176 0.043316804 0.02260293 -0.012268311 -0.06771291
-0.0578928 0.01768198 0.04894462 -0.01454638 -0.072904035 -0.047486953 -0.003982732 -0.0071910187
0.015480209 -0.08543355 0.0040013655 -0.0140605355 0.035615146 -0.04357006 0.010379999 -0.0039094775
-0.012960863 -0.022866404 -0.01752155 0.041025188 0.013955683 -0.015460888 -0.013284625 0.0534532
0.033339016 0.026954984 -0.025173048 0.027905783 0.006503899 0.0435046 -0.008970874 0.0048037358
0.017651366 0.023262521 -0.01087378 0.040787417 -0.0646369 -0.039618254 0.036773495 -0.04128003
0.031243686 -0.042114235 -0.018097151 -0.051941622 -0.015656086 -0.030998906 0.058359697 -0.016839841
0.020782806 -0.014210271 -0.026704406 -0.023013059 0.06578605 -0.03203367 -0.044438794 -0.032988384
-0.051857807 -0.015771447 0.026274921 0.033193417 -0.023955464 -0.053159393 0.04889741 0.053364873
0.026108656 -0.035110403 -0.0408264 0.016443493 0.0035914923 -0.021704454 -0.025915924 0.018857291
0.002995699 0.0006894296 -0.015669335 0.01934842 -0.05586933 -0.044727724 0.016810242 0.0041653733
0.067501314 0.028684009 -0.035011258 -0.04359018 0.026770359 0.066745885 -0.00893721 -0.0045438204
-0.0017538005 0.0061880597 -0.046535544 0.012144388 -0.03249282 0.039027035 -0.041658424 -0.029709602
-0.04438145 0.0034862382 -0.049522463 0.023775598 -0.043226548 -0.04214586 -0.051257025 -0.07637277
-0.068201445 -0.03745776 0.04394281 -0.03684485 -0.0041365633 0.003714698 0.016092926 0.022009738
0.042957198 -0.033702914 -0.02814217 -0.012455938 0.047292538 0.018967044 0.015607767 -0.053005792
-0.027608028 0.03275129 -0.030472431 0.009552657 0.014178241 -0.031523705 0.006563595 -0.016164906
0.03875058 0.021932796 0.02241579 0.034783352 0.00940627 -0.02220476 0.010387934 0.030679034
-0.048014283 -0.05348073 -0.04228486 0.045791216 0.07523699 0.079739064 -0.04329385 0.016633308
-0.012917079 -0.012288356 0.01965406 0.0433668 -0.0150052905 0.0020582257 -0.033864208 -0.032070085
0.024776127 0.037368637 -0.069270395 -0.023781769 -0.022510326 0.08871195 0.020244144 -0.008313967
-0.016336907 -0.06434994 -0.029644284 0.022421084 -0.021995828 0.027169136 0.019780057 0.026928125
00000000: 64af 813c 2e04 65bd ca7f 173d e0b7 023c
00000010: ada0 333d 05d0 c6bb 79f5 9e3c 4f0f c0bc
00000020: 5782 03bd a8e4 dbbb 89fa 0e3d 5a53 523d
00000030: 502f eebc e627 aebc 6f92 dc3c 6bc8 e43c
00000040: a83d cdbc c7ee 223d 7a2d 5fbd f72c 8bbd
00000050: f88d e1bc 7961 8abc 75db 053d 1f42 143d
00000060: 05a0 a6bc 403e 393c c6ee 2a3d 9419 11bc
00000070: b0a7 e63c 8ceb 2dbd 1c25 25bd 6955 1dbc
00000080: 7c56 4cbb e6d6 423c 9de6 38bd 55ce 0abd
00000090: 8e8d fa3c 8e0c 54bb c9cc 8dbc f4f1 1239
000000a0: de94 e8bc 330e 2dbc baad a93c 9bfc d73c
000000b0: ee88 f1bb d0a9 17bc 81ce 2d3b cb73 113d
000000c0: e48e a0bc 0119 93bb aaa8 27bc 4c31 21bc
000000d0: ffc0 cbbb 7bfa a93b 1fd7 fc3c 150e 02bd
000000e0: 6be6 c43b 9d3d 00bd 7273 98bd ae63 06ba
000000f0: 5fc5 ee3b 9b4d 5b3d 990a fcbb 2284 db3c
00000100: 3866 d33c 5215 733c 2e09 37bd 676f c43c
00000110: 6992 613c 6f98 043c a2c1 233d a4d7 b53c
00000120: 5d9c e5bc 5c75 783d 7594 dbbc 6d53 223b
00000130: aeb1 ed3b 8c58 a13b ad33 25bd 56f9 0e3d
00000140: 6d6c babb d008 35bc 2c90 dbbc d79c 2cbd
00000150: f66c 313d c829 b93c 0701 49bc 11ad 8abd
00000160: 0021 6dbd cdd9 903c 277a 483d f153 6ebc
00000170: b64e 95bd ae81 42bd 9481 82bb a3a2 ebbb
00000180: b4a0 7d3c c9f7 aebd e31d 833b 295e 66bc
00000190: 30e1 113d 8576 32bd df10 2a3c 131b 80bb
000001a0: cd59 54bc 5352 bbbc 5b89 8fbc 070a 283d
000001b0: 61a6 643c aa4f 7dbc c1a7 59bc bef1 5a3d
000001c0: 7e8e 083d b3d0 dc3c b537 cebc ab9a e43c
000001d0: a91e d53b e131 323d 93fa 12bc a868 9d3b
000001e0: 9999 903c 0b91 be3c f027 32bc b510 273d
000001f0: 5a60 84bd c046 22bd ce9f 163d 4015 29bd
00000200: c2f2 ff3c fa7f 2cbd 7a40 94bc bdc0 54bd
00000210: 3141 80bc 6bf1 fdbc 940a 6f3d b5f3 89bc
00000220: b440 aa3c 32d2 68bc 33c3 dabc e285 bcbc
00000230: d6ba 863d bd35 03bd 7405 36bd d41e 07bd
00000240: da68 54bd 1f33 81bc 813e d73c d2f5 073d
00000250: 403e c4bc aabd 59bd a748 483d 2095 5a3d
00000260: d2e1 d53c edcf 0fbd 9539 27bd 81b4 863c
00000270: 3e5f 6b3b 8acd b1bc a24d d4bc 9b7a 9a3c
00000280: 7d53 443b d6ba 343a fa5c 80bc 9480 9e3c
00000290: 3dd7 64bd 6b34 37bd a2b5 893c af7d 883b
000002a0: 213e 8a3d bafa ea3c f767 0fbd 9e8b 32bd
000002b0: 834d db3c 11b2 883d 606d 12bc 54e4 94bb
000002c0: c8df e5ba 35c5 ca3b 0e9c 3ebd 41f9 463c
000002d0: 3117 05bd d0da 1f3d 06a2 2abd 8d61 f3bc
000002e0: 53c9 35bd 5f79 643b 11d8 4abd 0bc5 c23c
000002f0: 520e 31bd 23a1 2cbd e3f2 51bd 5469 9cbd
00000300: 33ad 8bbd 4f6d 19bd 60fd 333d a0ea 16bd
00000310: 028c 87bb 4a72 733b 50d5 833c c44d b43c
00000320: e3f3 2f3d 110c 0abd 688a e6bc fe13 4cbc
00000330: d2b5 413d c660 9b3c b8b7 7f3c 9a1c 59bd
00000340: 3b2a e2bc 3726 063d 52a1 f9bc bf82 1c3c
00000350: da4b 683c 001f 01bd 6d13 d73b 446c 84bc
00000360: eeb8 1e3d 68ac b33c 52a1 b73c fd78 0e3d
00000370: c21c 1a3c c2e6 b5bc 2732 2a3c 9952 fb3c
00000380: a0aa 44bd 9c0e 5bbd e432 2dbd 928f 3b3d
00000390: da15 9a3d 3c4e a33d e454 31bd 9342 883c
000003a0: 28a2 53bc 1a55 49bc 8d01 a13c 63a1 313d
000003b0: c0d8 75bc 4ce3 063b 32b5 0abd ec5b 03bd
000003c0: 4ef7 ca3c db0f 193d a3dd 8dbd fcd1 c2bc
000003d0: 9367 b8bc 9cae b53d 0cd7 a53c 4e37 08bc
000003e0: fad4 85bc e7c9 83bd 92d8 f2bc 6cac b73c
000003f0: 9830 b4bc cf91 de3c c909 a23c 5f98 dc3c

fc1.bias f4 [120]
-0.033288304 0.001289438 0.02818041 -0.044210177 0.047257826 0.11917883 -0.049410854 -0.04021506
0.240587 -0.046478987 -0.065000154 -0.013202222 -0.020419054 0.14403352 -0.004839324 -0.051235463
0.07224028 -0.007721588 -0.035935584 -0.11858273 0.06582678 0.014690348 0.03092237 0.02079888
0.111312464 -0.022801956 0.090569295 -0.021908337 0.007214491 0.018374529 0.09454966 0.10658293
-0.16512604 0.21951021 -0.01392345 0.03119494 0.14441073 0.03727665 0.017147385 -0.12986217
-0.05590991 -0.13079827 0.041953173 -0.014881316 0.021397896 0.11836013 0.020864025 -0.10876914
-0.022296434 0.0350859 0.037744273 0.031653263 0.1577453 0.12668774 -0.010054834 0.060972907
-0.048531324 -0.10746406 0.058074545 -0.02299442 0.0015655579 0.022372875 0.116278425 -0.055666104
0.07797283 -0.022890253 -0.071790256 -0.0066490825 -0.043031886 0.039718322 -0.09365761 -0.004465496
-0.022347778 0.0030873816 -0.060098026 0.043150295 -0.005386873 0.21905003 0.16898888 -0.04840268
0.08595126 -0.0585711 0.043795094 0.16840686 -0.11464645 -0.028465422 0.18579829 0.050738987
-0.012387969 0.045097724 -0.015236573 -0.14982077 0.042720933 -0.02232988 0.024344817 0.082560696
-0.035733268 -0.04952931 -0.013012573 -0.09232142 -0.008223423 0.10862668 0.049629547 0.009977643
-0.049489226 -0.050546832 0.042433336 0.21635996 -0.04675066 -0.15259767 0.15301572 0.08646767
-0.04884046 -0.023026377 0.07245372 -0.027938973 -0.041882236 0.121514335 0.04345012 0.033794206
00000000: 5159 08bd 5c02 a93a 9ada e63c bb15 35bd
00000010: 6c91 413d 0814 f43d 0963 4abd 8cb8 24bd
00000020: 705c 763e c060 3ebd cd1e 85bd 224e 58bc
00000030: dc45 a7bc 867d 133e 3193 9ebb 47dc 51bd
00000040: b6f2 933d 6005 fdbb 3131 13bd 81db f2bd
00000050: 31d0 863d c9af 703c e950 fd3c 6a62 aa3c
00000060: caf7 e33d 2bcb babc 657c b93d 1d79 b3bc
00000070: 8967 ec3b 2e86 963c 41a3 c13d 2748 da3d
00000080: cd16 29be 49c7 603e 2f1f 64bc 888c ff3c
00000090: 68e0 133e 67af 183d ac78 8c3c 97fa 04be
000000a0: ca01 65bd fbef 05be 17d7 2b3d c3d0 73bc
000000b0: a44a af3c cc66 f23d 08eb aa3c 5bc2 debd
000000c0: 03a7 b6bc 3cb6 0f3d bd99 1a3d daa6 013d
000000d0: fc87 213e 6eba 013e 08bd 24bc babe 793d
000000e0: c8c8 46bd 1e16 dcbd 93df 6d3d cb5e bcbc
000000f0: 6833 cd3a 5247 b73c 6223 ee3d 2402 64bd
00000100: 38b0 9f3d 5784 bbbc c506 93bd 8ce0 d9bb
00000110: 3442 30bd aeaf 223d 90cf bfbd 4c53 92bb
00000120: b012 b7bc ab55 4a3b 5929 76bd 5dbe 303d
00000130: 5e84 b0bb a74e 603e 6c0b 2d3e e341 46bd
00000140: 3707 b03d 40e8 6fbd 7c62 333d d972 2c3e
00000150: c2cb eabd 5130 e9bc e841 3e3e afd3 4f3d
00000160: e8f6 4abc 64b8 383d d2a2 79bc 9e6a 19be
00000170: 25fc 2e3d 27ed b6bc c86e c73c 9515 a93d
00000180: 0c5d 12bd 3fdf 4abd b032 55bc 0313 bdbd
00000190: 89bb 06bc aa77 de3d 5a48 4b3d 4579 233c
000001a0: 37b5 4abd 320a 4fbd 94ce 2d3d 778d 5d3e
000001b0: 9f7d 3fbd 9042 1cbe 27b0 1c3e f615 b13d
000001c0: ef0c 48bd d0a1 bcbc 9e62 943d 46e0 e4bc
000001d0: b58c 2bbd 82dc f83d c1f8 313d cb6b 0a3d

fc2.weight f4 [84, 120]
-0.10463877 -0.044326305 -0.030641349 0.02826078 0.01618543 -0.07318364 0.03938932 -0.0461581
0.035512984 -0.11026313 0.03783078 -0.0021581368 0.020172333 -0.005024378 0.09129394 0.08677301
0.009410747 0.06838101 -0.031810313 -0.046274498 -0.039845143 0.09063791 -0.014674527 -0.064253636
0.0023420542 -0.034915045 0.0475477 0.08216257 0.08910811 -0.0056018047 0.038991198 -0.092686296
0.025565203 -0.18690526 -0.009412105 0.099853136 0.054680042 0.1215293 -0.090455815 -0.023687875
0.07881399 0.05097214 0.07216356 0.0018304208 -0.012066691 0.09837905 -0.038122397 0.1001264
-0.014174613 0.02886873 -0.090631634 -0.0722725 0.08010444 0.025769593 -0.021702362 -0.059666257
0.053998694 -0.010059595 0.01612848 -0.091969565 0.05954786 0.014120827 -0.0055023665 -0.049174692
-0.027264422 -0.055617515 0.047971077 -0.065150686 -0.048758086 0.022074971 0.12273138 0.031954832
-0.053856395 0.03872649 0.05485587 0.017681038 0.02758694 0.035749696 0.079214826 -0.08695438
0.017434034 -0.03951691 0.005625882 0.12691544 0.018307969 0.08864517 -0.09307729 0.03860541
-0.05618455 -0.05558297 0.03721087 -0.14545794 0.036533713 -0.0844833 0.061807174 -0.03245669
-0.030913524 0.031191848 0.053103425 -0.014694137 -0.05368982 -0.0442942 -0.023424996 0.004391937
0.07084885 -0.06058132 -0.034938745 -0.07160148 0.013871114 0.021941701 0.00821262 -0.08242731
-0.006260789 -0.03848583 0.05594992 0.06533859 0.011488621 -0.0075587514 0.08076784 0.012208852
-0.06731175 -0.06703968 0.07570771 -0.04704027 -0.08439935 0.030492105 0.09716155 -0.060299024
0.11535118 0.001128849 -0.10673399 0.005677961 -0.07656908 -0.0009101707 -0.09696552 -0.047493108
-0.029702501 -0.05271394 0.09064394 -0.089232475 0.08530107 -0.042078994 -0.09303299 4.5827375e-05
0.0040504816 -0.0049550063 -0.085026436 0.08185852 0.019376129 0.1042798 0.1246106 0.14551334
-0.07802517 0.024467075 -0.055003732 0.07352031 -0.046985965 -0.119897105 0.025859285 0.04584756
-0.041667923 -0.056549966 -0.069980286 -0.068349674 0.092034675 -0.07683792 0.007279138 -0.03361731
-0.029617831 -0.039050918 0.07675986 0.03242235 0.041488256 0.014154712 0.05658448 -0.055633478
-0.081160806 -0.120599195 0.046800215 -0.04170341 0.14474209 0.07274186 0.064088196 -0.09421134
0.012519442 -0.025984092 -0.030026052 -0.057608947 0.029509109 0.02189579 0.050902005 0.11058729
-0.08283992 -0.0048454558 -0.032336637 0.105221294 -0.047693945 -0.06482476 -0.04473203 0.07262353
-0.018194295 0.009878556 0.09119265 0.02361853 -0.035453923 -0.0043955897 0.079429306 -0.06067175
-0.12232742 -0.06457971 -0.004590279 -0.17132322 -0.031823352 -0.03557565 0.01884058 -0.056863062
-0.016831994 0.053020485 -0.082925856 0.0427841 0.006341013 -0.026866276 -0.024464505 -0.05027657
0.06817861 -0.05404775 0.028596273 0.019889813 0.04176807 -0.023279851 0.016969258 0.13009243
0.042034592 -0.08313348 0.051773813 0.07974468 -0.093079604 0.06572968 -0.016682038 0.026240963
-0.056211077 -0.09899347 0.020446675 -0.032035433 -0.09022289 0.05896956 -0.08501144 0.07672535
0.016693456 0.040267605 -0.063354276 -0.03278917 -0.06146644 0.11997843 0.05004194 -0.018289184
00000000: da4c d6bd 808f 35bd 9103 fbbc 2783 e73c
00000010: 4f97 843c 4ee1 95bd b256 213d 4710 3dbd
00000020: 1076 113d a3d1 e1bd 73f4 1a3d 876f 0dbb
00000030: 7340 a53c 8aa3 a4bb 51f8 ba3d 0cb6 b13d
00000040: 892f 1a3c 580b 8c3d 884b 02bd 548a 3dbd
00000050: a934 23bd 5ea0 b93d 6d6d 70bc 6997 83bd
00000060: 267d 193b 1403 0fbd 61c1 423d d944 a83d
00000070: 507e b63d 588f b7bb 3cb5 1f3d 50d2 bdbd
00000080: 1e6e d13c 1864 3fbe 3b35 1abc cd7f cc3d
00000090: 2ef8 5f3d 5be4 f83d e640 b9bd 130d c2bc
000000a0: 3b69 a13d 2ac8 503d 7dca 933d bbea ef3a
000000b0: 5fb3 45bc f57a c93d 3b26 1cbd 120f cd3d
000000c0: a33c 68bc 1d7e ec3c 149d b9bd 9b03 94bd
000000d0: cc0d a43d c11a d33c 27c9 b1bc 9b64 74bd
000000e0: bc2d 5d3d 00d1 24bc e01f 843c 8a5a bcbd
000000f0: 75e8 733d 0b5b 673c 324d b4bb 676b 49bd
00000100: a359 dfbc 31cf 63bd 527d 443d b96d 85bd
00000110: 8fb6 47bd 92d6 b43c 975a fb3d 12e3 023d
00000120: 8698 5cbd ab9f 1e3d 8cb0 603d d3d7 903c
00000130: 02fe e13c 466e 123d 623b a23d 2315 b2bd
00000140: d2d1 8e3c 7cdc 21bd 5259 b83b 1ff6 013e
00000150: 98fa 953c 998b b53d 4e9f bebd b520 1e3d
00000160: c521 66bd f8aa 63bd 6d6a 183d edf2 14be
00000170: 60a4 153d 9505 adbd 8529 7d3d 4ef1 04bd
00000180: 5c3e fdbc 0c86 ff3c fa82 593d adbf 70bc
00000190: dbe9 5bbd d66d 35bd c7e5 bfbc 3dea 8f3b
000001a0: 3419 913d 1e24 78bd ee1b 0fbd cca3 92bd
000001b0: ab43 633c 15bf b33c 3a8e 063c a6cf a8bd
000001c0: 4e27 cdbb 51a3 1dbd be2b 653d 3dd0 853d
000001d0: c53a 3c3c 67af f7bb 9c69 a53d a307 483c
000001e0: beda 89bd 1a4c 89bd a50c 9b3d 4cad 40bd
000001f0: 91d9 acbd 94ca f93c a2fc c63d 1cfc 76bd
00000200: 3d3d ec3d e3f5 933a 5a97 dabd 300e ba3b
00000210: 40d0 9cbd 8698 6eba dc95 c6bd 2288 42bd
00000220: a952 f3bc 93ea 57bd 88a3 b93d 84bf b6bd
00000230: 54b2 ae3d 065b 2cbd 1588 bebd c536 4038
00000240: e7b9 843b 9b5d a2bb 5722 aebd 71a5 a73d
00000250: b0ba 9e3c a690 d53d d833 ff3d 7301 153e
00000260: a9cb 9fbd 2d6f c83c 984b 61bd d191 963d
00000270: 5b74 40bd 9d8c f5bd dad6 d33c a7ca 3b3d
00000280: fcab 2abd f0a0 67bd d351 8fbd eafa 8bbd
00000290: ad7c bc3d 335d 9dbd d685 ee3b 4eb2 09bd
000002a0: 18a1 f2bc dbf3 1fbd 4634 9d3d 4ccd 043d
000002b0: 97ef 293d 2ae9 673c 21c5 673d eedf 63bd
000002c0: a337 a6bd b6fc f6bd 95b1 3f3d 32d1 2abd
000002d0: 4537 143e aff9 943d ac40 833d e0f1 c0bd
000002e0: 581e 4d3c 97dc d4bc 32f9 f5bc 5cf7 6bbd
000002f0: 16bd f13c cd5e b33c 9f7e 503d 977b e23d
00000300: faa7 a9bd a1c6 9ebb 6c73 04bd 437e d73d
00000310: ba5a 43bd d8c2 84bd ef38 37bd a5bb 943d
00000320: 340c 95bc abd9 213c 36c3 ba3d a67b c13c
00000330: 2238 11bd e108 90bb d5ab a23d f182 78bd
00000340: cc86 fabd 5e42 84bd 0d6a 96bb 5b6f 2fbe
00000350: 3459 02bd c6b7 11bd 8f57 9a3c 3ee9 68bd
00000360: 40e3 89bc 022c 593d 08d5 a9bd 613e 2f3d
00000370: 46c8 cf3b aa16 dcbc c969 c8bc ceee 4dbd
00000380: 3aa1 8b3d 2c61 5dbd bb42 ea3c f6ef a23c
00000390: ff14 2b3d 63b5 bebc 1d03 8b3c f336 053e
000003a0: 772c 2c3d e341 aabd c710 543d 2e51 a33d
000003b0: 85a0 bebd 489d 863d c5a8 88bc 4af7 d63c
000003c0: 963d 66bd 17bd cabd c97f a73c 9637 03bd
000003d0: c7c6 b8bd 118a 713d 7a1a aebd 2e22 9d3d
000003e0: b7c0 883c a5ef 243d e3bf 81bd f04d 06bd
000003f0: 3cc4 7bbd 40b7 f53d c7f8 4c3d 33d3 95bc

fc2.bias f4 [84]
-0.098911524 0.17881238 0.23666447 0.27685666 -0.049677778 0.19058032 0.05439471 0.13471709
0.4477567 -0.043051247 -0.0581699 0.08065979 0.18596557 0.099888675 0.041216873 0.22028838
0.20042835 0.014049513 -0.07715551 -0.018528035 -0.042278003 0.2321427 -0.06663761 0.035011362
-0.03555295 0.13294694 0.021059208 -0.0701988 0.09851197 -0.06352196 -0.0031485467 -0.028212186
0.45473546 -0.0015492035 -0.09888765 0.0883528 -0.027804188 0.07038898 0.31028387 -0.057344213
0.12438055 0.2005106 -0.050380293 0.15064247 0.08514292 0.0832219 0.1370227 -0.05003827
0.31703317 0.05622936 -0.078243926 0.1487834 0.00064373075 -0.06573475 0.06659647 0.1646916
0.08562727 0.05205684 -0.03631966 -0.27857077 0.046220236 0.08249385 0.092314854 0.05202681
0.023030449 -0.043140825 0.0033699544 0.12182285 -0.083699614 -0.065868296 0.36753553 -0.025784958
0.24186976 0.14638445 0.11443692 0.12062109 0.31181583 -0.09180303 -0.015540633 0.24579033
0.016009139 0.116751164 -0.07257625 0.101140544
00000000: 2092 cabd 981a 373e 2c58 723e 28c0 8d3e
00000010: ed7a 4bbd 7d27 433e fdcc 5e3d 47f3 093e
00000020: 5e40 e53e 8156 30bd 9043 6ebd f630 a53d
00000030: c26d 3e3e 6f92 cc3d 06d3 283d 4793 613e
00000040: 173d 4d3e ee2f 663c b503 9ebd 1bc8 97bc
00000050: b32b 2dbd d1b6 6d3e 4d79 88bd 1368 0f3d
00000060: f89f 11bd 3e23 083e 5c84 ac3c 63c4 8fbd
00000070: a5c0 c93d cd17 82bd d957 4ebb 3e1d e7bc
00000080: 16d3 e83e a50e cbba 9c85 cabd 50f2 b43d
00000090: 9cc5 e3bc 1928 903d 87dd 9e3e c4e1 6abd
000000a0: 3bbb fe3d a752 4d3e 915b 4ebd 0542 1a3e
000000b0: 695f ae3d 3e70 aa3d ae4f 0c3e eef4 4cbd
000000c0: 2c52 a23e c250 663d 5a3e a0bd ad5a 183e
000000d0: 0ac0 283a f19f 86bd bb63 883d eaa4 283e
000000e0: 5a5d af3d 8e39 553d ecc3 14bd d4a0 8ebe
000000f0: 6e51 3d3d 89f2 a83d 920f bd3d 101a 553d
00000100: 5aaa bc3c 6fb4 30bd 74da 5c3b 427e f93d
00000110: b46a abbd f5e5 86bd 9e2d bc3e fa3a d3bc
00000120: b5ac 773e cee5 153e e75d ea3d 3108 f73d
00000130: 53a6 9f3e 3a03 bcbd 249e 7ebc 76b0 7b3e
00000140: 9925 833c 3c1b ef3d dba2 94bd c622 cf3d

fc3.weight f4 [10, 84]
0.03493365 -0.09709869 0.24461429 -0.1426208 -0.03912305 0.16829507 -0.17715901 -0.243892
-0.27553308 -0.07654762 -0.0600916 0.21573223 0.050405487 0.014925908 0.2096394 -0.1265323
-0.10844722 0.09332228 -0.093141906 0.27827296 0.026716081 0.050774977 0.012823508 0.07239598
0.11946095 -0.08109709 -0.009635655 -0.02223251 0.011096907 -0.103860915 -0.08471792 0.078670636
-0.13161767 0.14428404 0.03126973 0.025713945 -0.018010184 0.06421859 0.18256423 0.25762725
-0.015924627 0.288072 0.07302609 -0.18351434 0.13142154 0.13829371 -0.067000195 0.071607575
-0.16727202 -0.0058530704 0.11612478 -0.079294994 -0.11806798 0.20062517 0.05276492 -0.15190601
-0.031722415 -0.032910697 0.15511501 -0.01585117 -0.042026814 0.13784508 0.093103416 0.079532295
-0.08179074 -0.054176833 0.10832727 0.09452114 -0.0065869372 -0.07295975 -0.16578674 0.09678668
0.18379082 0.1294385 0.20286389 -0.087460466 -0.048213594 -0.022049153 -0.100025795 -0.08422043
-0.053026017 0.086848855 -0.0037681519 -0.11460421 0.044057216 -0.0010100444 0.19629672 -0.26654172
-0.02692486 -0.25602475 0.022718191 0.28933704 -0.34050104 -0.043993764 -0.08001242 -0.00040943996
-0.07154332 0.23585673 -0.23458764 -0.25940338 0.060042545 -0.08130085 -0.08479493 0.15133356
0.04830308 -0.2697577 0.085820735 -0.15452191 0.044370238 -0.14580804 -0.06735012 0.09516661
0.11548467 0.17314552 -0.091919914 -0.016385678 -0.031662922 0.15251768 -0.031522747 -0.058210906
0.23876683 -0.16442278 -0.00421581 0.14480995 0.11840454 -0.14759444 0.042983823 -0.13923903
-0.07509136 0.08295466 -0.023723345 0.09437916 -0.16051874 -0.1725102 0.00022379181 0.043839965
0.07429497 -0.07272088 0.06476972 -0.12535256 -0.068976164 0.1635383 -0.11808007 0.20147483
-0.06160951 -0.06516939 -0.09681678 0.069099754 -0.15578249 0.3770175 0.03448334 -0.14591871
-0.07717679 0.1234092 0.04931152 0.0915726 0.12389128 -0.109380886 0.20894034 -0.15440683
-0.09956413 -0.020521339 0.08870432 0.008369611 0.05705618 -0.15689425 0.014758342 -0.030243613
0.18468317 0.076346695 -0.14088751 0.1281542 -0.045798562 0.18243311 -0.19972622 -0.21442056
0.16052859 0.042310394 0.066766135 0.11704577 0.201991 -0.14170823 0.17710535 0.16501813
0.06424969 0.12100978 0.03046542 -0.090649955 -0.07758252 0.381879 0.15968701 0.04590663
-0.083445646 0.03460989 -0.09926785 -0.0032003068 -0.18337624 0.04510573 0.07944754 -0.10319507
0.13150978 0.00333155 -0.092811584 -0.080652356 0.07955867 -0.12275511 0.042998843 -0.099044465
-0.104841664 0.19741099 0.07817698 -0.04818759 -0.029748831 -0.0219455 0.06545913 0.17764325
0.06161726 0.30240065 -0.10539739 -0.11722525 0.03432423 -0.021173911 0.082407884 0.07341804
-0.031919774 0.1882258 0.00849503 -0.06315654 0.05642374 -0.10731867 0.17903836 -0.05177369
0.117178306 -0.11529801 -0.12330267 0.010151211 -0.04847376 -0.058747075 0.2605797 0.08263219
-0.2126405 0.11116841 0.011259249 0.03865289 0.056825016 0.059503134 0.08148591 -0.06444833
-0.032602005 -0.018666169 -0.008893636 -0.07494601 -0.038066268 0.13429289 -0.25590208 0.15005949
00000000: 9616 0f3d aedb c6bd 2b7c 7a3e 300b 12be
00000010: 7e3f 20bd 8b55 2c3e 2c69 35be d3be 79be
00000020: ac12 8dbe 00c5 9cbd 9c22 76bd e9e8 5c3e
00000030: fc75 4e3d cc8b 743c b6ab 563e af91 01be
00000040: 9319 debd c01f bf3d 2fc1 bebd cb79 8e3e
00000050: afdb da3c 6cf9 4f3d b119 523c 5844 943d
00000060: f1a7 f43d 3b16 a6bd dede 1dbc f420 b6bc
00000070: cdcf 353c 08b5 d4bd 9780 adbd 121e a13d
00000080: c8c6 06be 32bf 133e b014 003d 0da6 d23c
00000090: 188a 93bc 0985 833d 1ef2 3a3e b8e7 833e
000000a0: 5d74 82bc 2c7e 933e b48e 953d 2feb 3bbe
000000b0: 5e93 063e de9c 0d3e 6637 89bd fea6 923d
000000c0: 5b49 2bbe 1dcb bfbb d4d2 ed3d 6a65 a2bd
000000d0: a0cd f1bd af70 4d3e 0720 583d 408d 1bbe
000000e0: 5def 01bd 5ecd 06bd 78d6 1e3e 50da 81bc
000000f0: 4f24 2cbd 4327 0d3e 01ad be3d d4e1 a23d
00000100: e781 a7bd 87e8 5dbd b0da dd3d 4d94 c13d
00000110: 3cd7 d7bb ec6b 95bd 00c4 29be 1838 c63d
00000120: a933 3c3e 878b 043e 8dbb 4f3e 791e b3bd
00000130: 9e7b 45bd 6da0 b4bc 53da ccbd c37b acbd
00000140: cf31 59bd d0dd b13d 19f3 76bb 9db5 eabd
00000150: 5775 343d 7763 84ba 0202 493e 2878 88be
00000160: 8691 dcbc ad15 83be 801b ba3c fc23 943e
00000170: 2756 aebe ce32 34bd 8ddd a3bd 1aaa d6b9
00000180: 4e85 92bd 6d84 713e be37 70be 85d0 84be
00000190: 2cef 753d 0f81 a6bd f7a8 adbd 2ff7 1a3e
000001a0: 73d9 453d ae1d 8abe c8c2 af3d fe3a 1ebe
000001b0: 91bd 353d b44e 15be dcee 89bd b6e6 c23d
000001c0: 3a83 ec3d 0f4d 313e 8240 bcbd 423b 86bc
000001d0: fbb0 01bd 982d 1c3e ff1d 01bd 8f6e 6ebd
000001e0: 4b7f 743e 725e 28be c724 8abb 0f49 143e
000001f0: 147e f23d ff22 17be ce0f 303d ad94 0ebe
00000200: 80c9 99bd 22e4 a93d 7657 c2bc dc49 c13d
00000210: 065f 24be 84a6 30be a8a9 6a39 8991 333d
00000220: f627 983d afee 94bd fda5 843d 6c5c 00be
00000230: 6043 8dbd 9676 273e f7d3 f1bd 6b4f 4e3e
00000240: 415a 7cbd 8777 85bd e047 c6bd 2c84 8d3d
00000250: 7285 1fbe 7008 c13e 673e 0d3d b76b 15be
00000260: dd0e 9ebd f6bd fc3d e0fa 493d 6a8a bb3d
00000270: b6ba fd3d 1603 e0bd 75f4 553e d31c 1ebe
00000280: 47e8 cbbd 5e1c a8bc 9caa b53d b120 093c
00000290: beb3 693d e3a8 20be f9cc 713c 74c1 f7bc
000002a0: 961d 3d3e a85b 9c3d d144 10be db3a 033e
000002b0: 4697 3bbd bfcf 3a3e 0885 4cbe 1091 5bbe
000002c0: 9b61 243e aa4d 2d3d afbc 883d b1b5 ef3d
000002d0: bbd6 4e3e f61b 11be 1b5b 353e 83fa 283e
000002e0: 5795 833d fad3 f73d 9e92 f93c afa6 b9bd
000002f0: 96e3 9ebd a585 c33e fe84 233e 9708 3c3d
00000300: 8de5 aabd 1ac3 0d3d f14c cbbd 3dbc 51bb
00000310: fbc6 3bbe c9c0 383d 64b5 a23d f057 d3bd
00000320: 80aa 063e 2256 5a3b 0014 bebd 102d a5bd
00000330: a8ef a23d 0867 fbbd 8e1f 303d d3d7 cabd
00000340: 3ab7 d6bd 1b26 4a3e 411b a03d 5a60 45bd
00000350: d2b3 f3bc 0dc7 b3bc 700f 863d 1de8 353e
00000360: 6162 7c3d 42d4 9a3e 96da d7bd cb13 f0bd
00000370: 9097 0c3d e974 adbc 77c5 a83d 335c 963d
00000380: 4fbe 02bd 44be 403e bd2e 0b3c 3758 81bd
00000390: 941c 673d e4c9 dbbd d555 373e a610 54bd
000003a0: 2efb ef3d 5d21 ecbd 1c86 fcbd 4451 263c
000003b0: 6c8c 46bd c6a0 70bd b46a 853e 113b a93d
000003c0: 6ebe 59be 43ac e33d b778 383c 7e52 1e3d
000003d0: 59c1 683d 8fb9 733d 16e2 a63d 7cfd 83bd
000003e0: ae89 05bd cbe9 98bc 9db6 11bc 4b7d 99bd
000003f0: 60eb 1bbd 1384 093e 9905 83be 32a9 193e

fc3.bias f4 [10]
-0.34375256 -0.47839034 0.13572668 0.27920148 0.6004375 -0.17416975 0.17839079 -0.357253
0.27630866 -0.1513423
00000000: 5600 b0be 94ef f4be effb 0a3e 7ff3 8e3e
00000010: 46b6 193f 8e59 32be 13ac 363e dde9 b6be
00000020: 5478 8d3e 7af9 1abe
